<?xml version="1.0" ?>
<net name="LtoAB" version="10">
	<layers>
		<layer id="0" name="data_l" type="Parameter" version="opset1">
			<data element_type="f32" shape="1,1,224,224"/>
			<output>
				<port id="0" precision="FP32">
					<dim>1</dim>
					<dim>1</dim>
					<dim>224</dim>
					<dim>224</dim>
				</port>
			</output>
		</layer>
		<layer id="1" name="data_add_/copy_const" type="Const" version="opset1">
			<data element_type="f32" offset="0" shape="1,1,1,1" size="4"/>
			<output>
				<port id="1" precision="FP32">
					<dim>1</dim>
					<dim>1</dim>
					<dim>1</dim>
					<dim>1</dim>
				</port>
			</output>
		</layer>
		<layer id="2" name="Add_" type="Add" version="opset1">
			<input>
				<port id="0">
					<dim>1</dim>
					<dim>1</dim>
					<dim>224</dim>
					<dim>224</dim>
				</port>
				<port id="1">
					<dim>1</dim>
					<dim>1</dim>
					<dim>1</dim>
					<dim>1</dim>
				</port>
			</input>
			<output>
				<port id="2" precision="FP32">
					<dim>1</dim>
					<dim>1</dim>
					<dim>224</dim>
					<dim>224</dim>
				</port>
			</output>
		</layer>
		<layer id="3" name="73/Output_0/Data__const" type="Const" version="opset1">
			<data element_type="f32" offset="4" shape="64,1,3,3" size="2304"/>
			<output>
				<port id="1" precision="FP32">
					<dim>64</dim>
					<dim>1</dim>
					<dim>3</dim>
					<dim>3</dim>
				</port>
			</output>
		</layer>
		<layer id="4" name="bw_conv1_1/WithoutBiases" type="Convolution" version="opset1">
			<data dilations="1,1" output_padding="0,0" pads_begin="1,1" pads_end="1,1" strides="1,1"/>
			<input>
				<port id="0">
					<dim>1</dim>
					<dim>1</dim>
					<dim>224</dim>
					<dim>224</dim>
				</port>
				<port id="1">
					<dim>64</dim>
					<dim>1</dim>
					<dim>3</dim>
					<dim>3</dim>
				</port>
			</input>
			<output>
				<port id="2" precision="FP32">
					<dim>1</dim>
					<dim>64</dim>
					<dim>224</dim>
					<dim>224</dim>
				</port>
			</output>
		</layer>
		<layer id="5" name="bw_conv1_1/Dims1501/copy_const" type="Const" version="opset1">
			<data element_type="f32" offset="2308" shape="1,64,1,1" size="256"/>
			<output>
				<port id="1" precision="FP32">
					<dim>1</dim>
					<dim>64</dim>
					<dim>1</dim>
					<dim>1</dim>
				</port>
			</output>
		</layer>
		<layer id="6" name="bw_conv1_1" type="Add" version="opset1">
			<input>
				<port id="0">
					<dim>1</dim>
					<dim>64</dim>
					<dim>224</dim>
					<dim>224</dim>
				</port>
				<port id="1">
					<dim>1</dim>
					<dim>64</dim>
					<dim>1</dim>
					<dim>1</dim>
				</port>
			</input>
			<output>
				<port id="2" precision="FP32">
					<dim>1</dim>
					<dim>64</dim>
					<dim>224</dim>
					<dim>224</dim>
				</port>
			</output>
		</layer>
		<layer id="7" name="relu1_1" type="ReLU" version="opset1">
			<input>
				<port id="0">
					<dim>1</dim>
					<dim>64</dim>
					<dim>224</dim>
					<dim>224</dim>
				</port>
			</input>
			<output>
				<port id="1" precision="FP32">
					<dim>1</dim>
					<dim>64</dim>
					<dim>224</dim>
					<dim>224</dim>
				</port>
			</output>
		</layer>
		<layer id="8" name="111/Output_0/Data__const" type="Const" version="opset1">
			<data element_type="f32" offset="2564" shape="64,64,3,3" size="147456"/>
			<output>
				<port id="1" precision="FP32">
					<dim>64</dim>
					<dim>64</dim>
					<dim>3</dim>
					<dim>3</dim>
				</port>
			</output>
		</layer>
		<layer id="9" name="conv1_2/WithoutBiases" type="Convolution" version="opset1">
			<data dilations="1,1" output_padding="0,0" pads_begin="1,1" pads_end="1,1" strides="2,2"/>
			<input>
				<port id="0">
					<dim>1</dim>
					<dim>64</dim>
					<dim>224</dim>
					<dim>224</dim>
				</port>
				<port id="1">
					<dim>64</dim>
					<dim>64</dim>
					<dim>3</dim>
					<dim>3</dim>
				</port>
			</input>
			<output>
				<port id="2" precision="FP32">
					<dim>1</dim>
					<dim>64</dim>
					<dim>112</dim>
					<dim>112</dim>
				</port>
			</output>
		</layer>
		<layer id="10" name="conv1_2/Dims1603/copy_const" type="Const" version="opset1">
			<data element_type="f32" offset="150020" shape="1,64,1,1" size="256"/>
			<output>
				<port id="1" precision="FP32">
					<dim>1</dim>
					<dim>64</dim>
					<dim>1</dim>
					<dim>1</dim>
				</port>
			</output>
		</layer>
		<layer id="11" name="conv1_2" type="Add" version="opset1">
			<input>
				<port id="0">
					<dim>1</dim>
					<dim>64</dim>
					<dim>112</dim>
					<dim>112</dim>
				</port>
				<port id="1">
					<dim>1</dim>
					<dim>64</dim>
					<dim>1</dim>
					<dim>1</dim>
				</port>
			</input>
			<output>
				<port id="2" precision="FP32">
					<dim>1</dim>
					<dim>64</dim>
					<dim>112</dim>
					<dim>112</dim>
				</port>
			</output>
		</layer>
		<layer id="12" name="relu1_2" type="ReLU" version="opset1">
			<input>
				<port id="0">
					<dim>1</dim>
					<dim>64</dim>
					<dim>112</dim>
					<dim>112</dim>
				</port>
			</input>
			<output>
				<port id="1" precision="FP32">
					<dim>1</dim>
					<dim>64</dim>
					<dim>112</dim>
					<dim>112</dim>
				</port>
			</output>
		</layer>
		<layer id="13" name="data_mul_2463/copy_const" type="Const" version="opset1">
			<data element_type="f32" offset="150276" shape="1,64,1,1" size="256"/>
			<output>
				<port id="1" precision="FP32">
					<dim>1</dim>
					<dim>64</dim>
					<dim>1</dim>
					<dim>1</dim>
				</port>
			</output>
		</layer>
		<layer id="14" name="conv1_2norm/mean/Fused_Mul_" type="Multiply" version="opset1">
			<input>
				<port id="0">
					<dim>1</dim>
					<dim>64</dim>
					<dim>112</dim>
					<dim>112</dim>
				</port>
				<port id="1">
					<dim>1</dim>
					<dim>64</dim>
					<dim>1</dim>
					<dim>1</dim>
				</port>
			</input>
			<output>
				<port id="2" precision="FP32">
					<dim>1</dim>
					<dim>64</dim>
					<dim>112</dim>
					<dim>112</dim>
				</port>
			</output>
		</layer>
		<layer id="15" name="data_add_24602465/copy_const" type="Const" version="opset1">
			<data element_type="f32" offset="150532" shape="1,64,1,1" size="256"/>
			<output>
				<port id="1" precision="FP32">
					<dim>1</dim>
					<dim>64</dim>
					<dim>1</dim>
					<dim>1</dim>
				</port>
			</output>
		</layer>
		<layer id="16" name="conv1_2norm/variance/Fused_Add_" type="Add" version="opset1">
			<input>
				<port id="0">
					<dim>1</dim>
					<dim>64</dim>
					<dim>112</dim>
					<dim>112</dim>
				</port>
				<port id="1">
					<dim>1</dim>
					<dim>64</dim>
					<dim>1</dim>
					<dim>1</dim>
				</port>
			</input>
			<output>
				<port id="2" precision="FP32">
					<dim>1</dim>
					<dim>64</dim>
					<dim>112</dim>
					<dim>112</dim>
				</port>
			</output>
		</layer>
		<layer id="17" name="60/Output_0/Data__const" type="Const" version="opset1">
			<data element_type="f32" offset="150788" shape="128,64,3,3" size="294912"/>
			<output>
				<port id="1" precision="FP32">
					<dim>128</dim>
					<dim>64</dim>
					<dim>3</dim>
					<dim>3</dim>
				</port>
			</output>
		</layer>
		<layer id="18" name="conv2_1/WithoutBiases" type="Convolution" version="opset1">
			<data dilations="1,1" output_padding="0,0" pads_begin="1,1" pads_end="1,1" strides="1,1"/>
			<input>
				<port id="0">
					<dim>1</dim>
					<dim>64</dim>
					<dim>112</dim>
					<dim>112</dim>
				</port>
				<port id="1">
					<dim>128</dim>
					<dim>64</dim>
					<dim>3</dim>
					<dim>3</dim>
				</port>
			</input>
			<output>
				<port id="2" precision="FP32">
					<dim>1</dim>
					<dim>128</dim>
					<dim>112</dim>
					<dim>112</dim>
				</port>
			</output>
		</layer>
		<layer id="19" name="conv2_1/Dims1519/copy_const" type="Const" version="opset1">
			<data element_type="f32" offset="445700" shape="1,128,1,1" size="512"/>
			<output>
				<port id="1" precision="FP32">
					<dim>1</dim>
					<dim>128</dim>
					<dim>1</dim>
					<dim>1</dim>
				</port>
			</output>
		</layer>
		<layer id="20" name="conv2_1" type="Add" version="opset1">
			<input>
				<port id="0">
					<dim>1</dim>
					<dim>128</dim>
					<dim>112</dim>
					<dim>112</dim>
				</port>
				<port id="1">
					<dim>1</dim>
					<dim>128</dim>
					<dim>1</dim>
					<dim>1</dim>
				</port>
			</input>
			<output>
				<port id="2" precision="FP32">
					<dim>1</dim>
					<dim>128</dim>
					<dim>112</dim>
					<dim>112</dim>
				</port>
			</output>
		</layer>
		<layer id="21" name="relu2_1" type="ReLU" version="opset1">
			<input>
				<port id="0">
					<dim>1</dim>
					<dim>128</dim>
					<dim>112</dim>
					<dim>112</dim>
				</port>
			</input>
			<output>
				<port id="1" precision="FP32">
					<dim>1</dim>
					<dim>128</dim>
					<dim>112</dim>
					<dim>112</dim>
				</port>
			</output>
		</layer>
		<layer id="22" name="87/Output_0/Data__const" type="Const" version="opset1">
			<data element_type="f32" offset="446212" shape="128,128,3,3" size="589824"/>
			<output>
				<port id="1" precision="FP32">
					<dim>128</dim>
					<dim>128</dim>
					<dim>3</dim>
					<dim>3</dim>
				</port>
			</output>
		</layer>
		<layer id="23" name="conv2_2/WithoutBiases" type="Convolution" version="opset1">
			<data dilations="1,1" output_padding="0,0" pads_begin="1,1" pads_end="1,1" strides="2,2"/>
			<input>
				<port id="0">
					<dim>1</dim>
					<dim>128</dim>
					<dim>112</dim>
					<dim>112</dim>
				</port>
				<port id="1">
					<dim>128</dim>
					<dim>128</dim>
					<dim>3</dim>
					<dim>3</dim>
				</port>
			</input>
			<output>
				<port id="2" precision="FP32">
					<dim>1</dim>
					<dim>128</dim>
					<dim>56</dim>
					<dim>56</dim>
				</port>
			</output>
		</layer>
		<layer id="24" name="conv2_2/Dims1531/copy_const" type="Const" version="opset1">
			<data element_type="f32" offset="1036036" shape="1,128,1,1" size="512"/>
			<output>
				<port id="1" precision="FP32">
					<dim>1</dim>
					<dim>128</dim>
					<dim>1</dim>
					<dim>1</dim>
				</port>
			</output>
		</layer>
		<layer id="25" name="conv2_2" type="Add" version="opset1">
			<input>
				<port id="0">
					<dim>1</dim>
					<dim>128</dim>
					<dim>56</dim>
					<dim>56</dim>
				</port>
				<port id="1">
					<dim>1</dim>
					<dim>128</dim>
					<dim>1</dim>
					<dim>1</dim>
				</port>
			</input>
			<output>
				<port id="2" precision="FP32">
					<dim>1</dim>
					<dim>128</dim>
					<dim>56</dim>
					<dim>56</dim>
				</port>
			</output>
		</layer>
		<layer id="26" name="relu2_2" type="ReLU" version="opset1">
			<input>
				<port id="0">
					<dim>1</dim>
					<dim>128</dim>
					<dim>56</dim>
					<dim>56</dim>
				</port>
			</input>
			<output>
				<port id="1" precision="FP32">
					<dim>1</dim>
					<dim>128</dim>
					<dim>56</dim>
					<dim>56</dim>
				</port>
			</output>
		</layer>
		<layer id="27" name="data_mul_24672471/copy_const" type="Const" version="opset1">
			<data element_type="f32" offset="1036548" shape="1,128,1,1" size="512"/>
			<output>
				<port id="1" precision="FP32">
					<dim>1</dim>
					<dim>128</dim>
					<dim>1</dim>
					<dim>1</dim>
				</port>
			</output>
		</layer>
		<layer id="28" name="conv2_2norm/mean/Fused_Mul_" type="Multiply" version="opset1">
			<input>
				<port id="0">
					<dim>1</dim>
					<dim>128</dim>
					<dim>56</dim>
					<dim>56</dim>
				</port>
				<port id="1">
					<dim>1</dim>
					<dim>128</dim>
					<dim>1</dim>
					<dim>1</dim>
				</port>
			</input>
			<output>
				<port id="2" precision="FP32">
					<dim>1</dim>
					<dim>128</dim>
					<dim>56</dim>
					<dim>56</dim>
				</port>
			</output>
		</layer>
		<layer id="29" name="data_add_24682473/copy_const" type="Const" version="opset1">
			<data element_type="f32" offset="1037060" shape="1,128,1,1" size="512"/>
			<output>
				<port id="1" precision="FP32">
					<dim>1</dim>
					<dim>128</dim>
					<dim>1</dim>
					<dim>1</dim>
				</port>
			</output>
		</layer>
		<layer id="30" name="conv2_2norm/variance/Fused_Add_" type="Add" version="opset1">
			<input>
				<port id="0">
					<dim>1</dim>
					<dim>128</dim>
					<dim>56</dim>
					<dim>56</dim>
				</port>
				<port id="1">
					<dim>1</dim>
					<dim>128</dim>
					<dim>1</dim>
					<dim>1</dim>
				</port>
			</input>
			<output>
				<port id="2" precision="FP32">
					<dim>1</dim>
					<dim>128</dim>
					<dim>56</dim>
					<dim>56</dim>
				</port>
			</output>
		</layer>
		<layer id="31" name="58/Output_0/Data__const" type="Const" version="opset1">
			<data element_type="f32" offset="1037572" shape="256,128,3,3" size="1179648"/>
			<output>
				<port id="1" precision="FP32">
					<dim>256</dim>
					<dim>128</dim>
					<dim>3</dim>
					<dim>3</dim>
				</port>
			</output>
		</layer>
		<layer id="32" name="conv3_1/WithoutBiases" type="Convolution" version="opset1">
			<data dilations="1,1" output_padding="0,0" pads_begin="1,1" pads_end="1,1" strides="1,1"/>
			<input>
				<port id="0">
					<dim>1</dim>
					<dim>128</dim>
					<dim>56</dim>
					<dim>56</dim>
				</port>
				<port id="1">
					<dim>256</dim>
					<dim>128</dim>
					<dim>3</dim>
					<dim>3</dim>
				</port>
			</input>
			<output>
				<port id="2" precision="FP32">
					<dim>1</dim>
					<dim>256</dim>
					<dim>56</dim>
					<dim>56</dim>
				</port>
			</output>
		</layer>
		<layer id="33" name="conv3_1/Dims1483/copy_const" type="Const" version="opset1">
			<data element_type="f32" offset="2217220" shape="1,256,1,1" size="1024"/>
			<output>
				<port id="1" precision="FP32">
					<dim>1</dim>
					<dim>256</dim>
					<dim>1</dim>
					<dim>1</dim>
				</port>
			</output>
		</layer>
		<layer id="34" name="conv3_1" type="Add" version="opset1">
			<input>
				<port id="0">
					<dim>1</dim>
					<dim>256</dim>
					<dim>56</dim>
					<dim>56</dim>
				</port>
				<port id="1">
					<dim>1</dim>
					<dim>256</dim>
					<dim>1</dim>
					<dim>1</dim>
				</port>
			</input>
			<output>
				<port id="2" precision="FP32">
					<dim>1</dim>
					<dim>256</dim>
					<dim>56</dim>
					<dim>56</dim>
				</port>
			</output>
		</layer>
		<layer id="35" name="relu3_1" type="ReLU" version="opset1">
			<input>
				<port id="0">
					<dim>1</dim>
					<dim>256</dim>
					<dim>56</dim>
					<dim>56</dim>
				</port>
			</input>
			<output>
				<port id="1" precision="FP32">
					<dim>1</dim>
					<dim>256</dim>
					<dim>56</dim>
					<dim>56</dim>
				</port>
			</output>
		</layer>
		<layer id="36" name="85/Output_0/Data__const" type="Const" version="opset1">
			<data element_type="f32" offset="2218244" shape="256,256,3,3" size="2359296"/>
			<output>
				<port id="1" precision="FP32">
					<dim>256</dim>
					<dim>256</dim>
					<dim>3</dim>
					<dim>3</dim>
				</port>
			</output>
		</layer>
		<layer id="37" name="conv3_2/WithoutBiases" type="Convolution" version="opset1">
			<data dilations="1,1" output_padding="0,0" pads_begin="1,1" pads_end="1,1" strides="1,1"/>
			<input>
				<port id="0">
					<dim>1</dim>
					<dim>256</dim>
					<dim>56</dim>
					<dim>56</dim>
				</port>
				<port id="1">
					<dim>256</dim>
					<dim>256</dim>
					<dim>3</dim>
					<dim>3</dim>
				</port>
			</input>
			<output>
				<port id="2" precision="FP32">
					<dim>1</dim>
					<dim>256</dim>
					<dim>56</dim>
					<dim>56</dim>
				</port>
			</output>
		</layer>
		<layer id="38" name="conv3_2/Dims1597/copy_const" type="Const" version="opset1">
			<data element_type="f32" offset="4577540" shape="1,256,1,1" size="1024"/>
			<output>
				<port id="1" precision="FP32">
					<dim>1</dim>
					<dim>256</dim>
					<dim>1</dim>
					<dim>1</dim>
				</port>
			</output>
		</layer>
		<layer id="39" name="conv3_2" type="Add" version="opset1">
			<input>
				<port id="0">
					<dim>1</dim>
					<dim>256</dim>
					<dim>56</dim>
					<dim>56</dim>
				</port>
				<port id="1">
					<dim>1</dim>
					<dim>256</dim>
					<dim>1</dim>
					<dim>1</dim>
				</port>
			</input>
			<output>
				<port id="2" precision="FP32">
					<dim>1</dim>
					<dim>256</dim>
					<dim>56</dim>
					<dim>56</dim>
				</port>
			</output>
		</layer>
		<layer id="40" name="relu3_2" type="ReLU" version="opset1">
			<input>
				<port id="0">
					<dim>1</dim>
					<dim>256</dim>
					<dim>56</dim>
					<dim>56</dim>
				</port>
			</input>
			<output>
				<port id="1" precision="FP32">
					<dim>1</dim>
					<dim>256</dim>
					<dim>56</dim>
					<dim>56</dim>
				</port>
			</output>
		</layer>
		<layer id="41" name="75/Output_0/Data__const" type="Const" version="opset1">
			<data element_type="f32" offset="4578564" shape="256,256,3,3" size="2359296"/>
			<output>
				<port id="1" precision="FP32">
					<dim>256</dim>
					<dim>256</dim>
					<dim>3</dim>
					<dim>3</dim>
				</port>
			</output>
		</layer>
		<layer id="42" name="conv3_3/WithoutBiases" type="Convolution" version="opset1">
			<data dilations="1,1" output_padding="0,0" pads_begin="1,1" pads_end="1,1" strides="2,2"/>
			<input>
				<port id="0">
					<dim>1</dim>
					<dim>256</dim>
					<dim>56</dim>
					<dim>56</dim>
				</port>
				<port id="1">
					<dim>256</dim>
					<dim>256</dim>
					<dim>3</dim>
					<dim>3</dim>
				</port>
			</input>
			<output>
				<port id="2" precision="FP32">
					<dim>1</dim>
					<dim>256</dim>
					<dim>28</dim>
					<dim>28</dim>
				</port>
			</output>
		</layer>
		<layer id="43" name="conv3_3/Dims1585/copy_const" type="Const" version="opset1">
			<data element_type="f32" offset="6937860" shape="1,256,1,1" size="1024"/>
			<output>
				<port id="1" precision="FP32">
					<dim>1</dim>
					<dim>256</dim>
					<dim>1</dim>
					<dim>1</dim>
				</port>
			</output>
		</layer>
		<layer id="44" name="conv3_3" type="Add" version="opset1">
			<input>
				<port id="0">
					<dim>1</dim>
					<dim>256</dim>
					<dim>28</dim>
					<dim>28</dim>
				</port>
				<port id="1">
					<dim>1</dim>
					<dim>256</dim>
					<dim>1</dim>
					<dim>1</dim>
				</port>
			</input>
			<output>
				<port id="2" precision="FP32">
					<dim>1</dim>
					<dim>256</dim>
					<dim>28</dim>
					<dim>28</dim>
				</port>
			</output>
		</layer>
		<layer id="45" name="relu3_3" type="ReLU" version="opset1">
			<input>
				<port id="0">
					<dim>1</dim>
					<dim>256</dim>
					<dim>28</dim>
					<dim>28</dim>
				</port>
			</input>
			<output>
				<port id="1" precision="FP32">
					<dim>1</dim>
					<dim>256</dim>
					<dim>28</dim>
					<dim>28</dim>
				</port>
			</output>
		</layer>
		<layer id="46" name="data_mul_24752479/copy_const" type="Const" version="opset1">
			<data element_type="f32" offset="6938884" shape="1,256,1,1" size="1024"/>
			<output>
				<port id="1" precision="FP32">
					<dim>1</dim>
					<dim>256</dim>
					<dim>1</dim>
					<dim>1</dim>
				</port>
			</output>
		</layer>
		<layer id="47" name="conv3_3norm/mean/Fused_Mul_" type="Multiply" version="opset1">
			<input>
				<port id="0">
					<dim>1</dim>
					<dim>256</dim>
					<dim>28</dim>
					<dim>28</dim>
				</port>
				<port id="1">
					<dim>1</dim>
					<dim>256</dim>
					<dim>1</dim>
					<dim>1</dim>
				</port>
			</input>
			<output>
				<port id="2" precision="FP32">
					<dim>1</dim>
					<dim>256</dim>
					<dim>28</dim>
					<dim>28</dim>
				</port>
			</output>
		</layer>
		<layer id="48" name="data_add_24762481/copy_const" type="Const" version="opset1">
			<data element_type="f32" offset="6939908" shape="1,256,1,1" size="1024"/>
			<output>
				<port id="1" precision="FP32">
					<dim>1</dim>
					<dim>256</dim>
					<dim>1</dim>
					<dim>1</dim>
				</port>
			</output>
		</layer>
		<layer id="49" name="conv3_3norm/variance/Fused_Add_" type="Add" version="opset1">
			<input>
				<port id="0">
					<dim>1</dim>
					<dim>256</dim>
					<dim>28</dim>
					<dim>28</dim>
				</port>
				<port id="1">
					<dim>1</dim>
					<dim>256</dim>
					<dim>1</dim>
					<dim>1</dim>
				</port>
			</input>
			<output>
				<port id="2" precision="FP32">
					<dim>1</dim>
					<dim>256</dim>
					<dim>28</dim>
					<dim>28</dim>
				</port>
			</output>
		</layer>
		<layer id="50" name="103/Output_0/Data__const" type="Const" version="opset1">
			<data element_type="f32" offset="6940932" shape="512,256,3,3" size="4718592"/>
			<output>
				<port id="1" precision="FP32">
					<dim>512</dim>
					<dim>256</dim>
					<dim>3</dim>
					<dim>3</dim>
				</port>
			</output>
		</layer>
		<layer id="51" name="conv4_1/WithoutBiases" type="Convolution" version="opset1">
			<data dilations="1,1" output_padding="0,0" pads_begin="1,1" pads_end="1,1" strides="1,1"/>
			<input>
				<port id="0">
					<dim>1</dim>
					<dim>256</dim>
					<dim>28</dim>
					<dim>28</dim>
				</port>
				<port id="1">
					<dim>512</dim>
					<dim>256</dim>
					<dim>3</dim>
					<dim>3</dim>
				</port>
			</input>
			<output>
				<port id="2" precision="FP32">
					<dim>1</dim>
					<dim>512</dim>
					<dim>28</dim>
					<dim>28</dim>
				</port>
			</output>
		</layer>
		<layer id="52" name="conv4_1/Dims1543/copy_const" type="Const" version="opset1">
			<data element_type="f32" offset="11659524" shape="1,512,1,1" size="2048"/>
			<output>
				<port id="1" precision="FP32">
					<dim>1</dim>
					<dim>512</dim>
					<dim>1</dim>
					<dim>1</dim>
				</port>
			</output>
		</layer>
		<layer id="53" name="conv4_1" type="Add" version="opset1">
			<input>
				<port id="0">
					<dim>1</dim>
					<dim>512</dim>
					<dim>28</dim>
					<dim>28</dim>
				</port>
				<port id="1">
					<dim>1</dim>
					<dim>512</dim>
					<dim>1</dim>
					<dim>1</dim>
				</port>
			</input>
			<output>
				<port id="2" precision="FP32">
					<dim>1</dim>
					<dim>512</dim>
					<dim>28</dim>
					<dim>28</dim>
				</port>
			</output>
		</layer>
		<layer id="54" name="relu4_1" type="ReLU" version="opset1">
			<input>
				<port id="0">
					<dim>1</dim>
					<dim>512</dim>
					<dim>28</dim>
					<dim>28</dim>
				</port>
			</input>
			<output>
				<port id="1" precision="FP32">
					<dim>1</dim>
					<dim>512</dim>
					<dim>28</dim>
					<dim>28</dim>
				</port>
			</output>
		</layer>
		<layer id="55" name="105/Output_0/Data__const" type="Const" version="opset1">
			<data element_type="f32" offset="11661572" shape="512,512,3,3" size="9437184"/>
			<output>
				<port id="1" precision="FP32">
					<dim>512</dim>
					<dim>512</dim>
					<dim>3</dim>
					<dim>3</dim>
				</port>
			</output>
		</layer>
		<layer id="56" name="conv4_2/WithoutBiases" type="Convolution" version="opset1">
			<data dilations="1,1" output_padding="0,0" pads_begin="1,1" pads_end="1,1" strides="1,1"/>
			<input>
				<port id="0">
					<dim>1</dim>
					<dim>512</dim>
					<dim>28</dim>
					<dim>28</dim>
				</port>
				<port id="1">
					<dim>512</dim>
					<dim>512</dim>
					<dim>3</dim>
					<dim>3</dim>
				</port>
			</input>
			<output>
				<port id="2" precision="FP32">
					<dim>1</dim>
					<dim>512</dim>
					<dim>28</dim>
					<dim>28</dim>
				</port>
			</output>
		</layer>
		<layer id="57" name="conv4_2/Dims1549/copy_const" type="Const" version="opset1">
			<data element_type="f32" offset="21098756" shape="1,512,1,1" size="2048"/>
			<output>
				<port id="1" precision="FP32">
					<dim>1</dim>
					<dim>512</dim>
					<dim>1</dim>
					<dim>1</dim>
				</port>
			</output>
		</layer>
		<layer id="58" name="conv4_2" type="Add" version="opset1">
			<input>
				<port id="0">
					<dim>1</dim>
					<dim>512</dim>
					<dim>28</dim>
					<dim>28</dim>
				</port>
				<port id="1">
					<dim>1</dim>
					<dim>512</dim>
					<dim>1</dim>
					<dim>1</dim>
				</port>
			</input>
			<output>
				<port id="2" precision="FP32">
					<dim>1</dim>
					<dim>512</dim>
					<dim>28</dim>
					<dim>28</dim>
				</port>
			</output>
		</layer>
		<layer id="59" name="relu4_2" type="ReLU" version="opset1">
			<input>
				<port id="0">
					<dim>1</dim>
					<dim>512</dim>
					<dim>28</dim>
					<dim>28</dim>
				</port>
			</input>
			<output>
				<port id="1" precision="FP32">
					<dim>1</dim>
					<dim>512</dim>
					<dim>28</dim>
					<dim>28</dim>
				</port>
			</output>
		</layer>
		<layer id="60" name="115/Output_0/Data__const" type="Const" version="opset1">
			<data element_type="f32" offset="21100804" shape="512,512,3,3" size="9437184"/>
			<output>
				<port id="1" precision="FP32">
					<dim>512</dim>
					<dim>512</dim>
					<dim>3</dim>
					<dim>3</dim>
				</port>
			</output>
		</layer>
		<layer id="61" name="conv4_3/WithoutBiases" type="Convolution" version="opset1">
			<data dilations="1,1" output_padding="0,0" pads_begin="1,1" pads_end="1,1" strides="1,1"/>
			<input>
				<port id="0">
					<dim>1</dim>
					<dim>512</dim>
					<dim>28</dim>
					<dim>28</dim>
				</port>
				<port id="1">
					<dim>512</dim>
					<dim>512</dim>
					<dim>3</dim>
					<dim>3</dim>
				</port>
			</input>
			<output>
				<port id="2" precision="FP32">
					<dim>1</dim>
					<dim>512</dim>
					<dim>28</dim>
					<dim>28</dim>
				</port>
			</output>
		</layer>
		<layer id="62" name="conv4_3/Dims1573/copy_const" type="Const" version="opset1">
			<data element_type="f32" offset="30537988" shape="1,512,1,1" size="2048"/>
			<output>
				<port id="1" precision="FP32">
					<dim>1</dim>
					<dim>512</dim>
					<dim>1</dim>
					<dim>1</dim>
				</port>
			</output>
		</layer>
		<layer id="63" name="conv4_3" type="Add" version="opset1">
			<input>
				<port id="0">
					<dim>1</dim>
					<dim>512</dim>
					<dim>28</dim>
					<dim>28</dim>
				</port>
				<port id="1">
					<dim>1</dim>
					<dim>512</dim>
					<dim>1</dim>
					<dim>1</dim>
				</port>
			</input>
			<output>
				<port id="2" precision="FP32">
					<dim>1</dim>
					<dim>512</dim>
					<dim>28</dim>
					<dim>28</dim>
				</port>
			</output>
		</layer>
		<layer id="64" name="relu4_3" type="ReLU" version="opset1">
			<input>
				<port id="0">
					<dim>1</dim>
					<dim>512</dim>
					<dim>28</dim>
					<dim>28</dim>
				</port>
			</input>
			<output>
				<port id="1" precision="FP32">
					<dim>1</dim>
					<dim>512</dim>
					<dim>28</dim>
					<dim>28</dim>
				</port>
			</output>
		</layer>
		<layer id="65" name="data_mul_24832487/copy_const" type="Const" version="opset1">
			<data element_type="f32" offset="30540036" shape="1,512,1,1" size="2048"/>
			<output>
				<port id="1" precision="FP32">
					<dim>1</dim>
					<dim>512</dim>
					<dim>1</dim>
					<dim>1</dim>
				</port>
			</output>
		</layer>
		<layer id="66" name="conv4_3norm/mean/Fused_Mul_" type="Multiply" version="opset1">
			<input>
				<port id="0">
					<dim>1</dim>
					<dim>512</dim>
					<dim>28</dim>
					<dim>28</dim>
				</port>
				<port id="1">
					<dim>1</dim>
					<dim>512</dim>
					<dim>1</dim>
					<dim>1</dim>
				</port>
			</input>
			<output>
				<port id="2" precision="FP32">
					<dim>1</dim>
					<dim>512</dim>
					<dim>28</dim>
					<dim>28</dim>
				</port>
			</output>
		</layer>
		<layer id="67" name="data_add_24842489/copy_const" type="Const" version="opset1">
			<data element_type="f32" offset="30542084" shape="1,512,1,1" size="2048"/>
			<output>
				<port id="1" precision="FP32">
					<dim>1</dim>
					<dim>512</dim>
					<dim>1</dim>
					<dim>1</dim>
				</port>
			</output>
		</layer>
		<layer id="68" name="conv4_3norm/variance/Fused_Add_" type="Add" version="opset1">
			<input>
				<port id="0">
					<dim>1</dim>
					<dim>512</dim>
					<dim>28</dim>
					<dim>28</dim>
				</port>
				<port id="1">
					<dim>1</dim>
					<dim>512</dim>
					<dim>1</dim>
					<dim>1</dim>
				</port>
			</input>
			<output>
				<port id="2" precision="FP32">
					<dim>1</dim>
					<dim>512</dim>
					<dim>28</dim>
					<dim>28</dim>
				</port>
			</output>
		</layer>
		<layer id="69" name="81/Output_0/Data__const" type="Const" version="opset1">
			<data element_type="f32" offset="30544132" shape="512,512,3,3" size="9437184"/>
			<output>
				<port id="1" precision="FP32">
					<dim>512</dim>
					<dim>512</dim>
					<dim>3</dim>
					<dim>3</dim>
				</port>
			</output>
		</layer>
		<layer id="70" name="conv5_1/WithoutBiases" type="Convolution" version="opset1">
			<data dilations="2,2" output_padding="0,0" pads_begin="2,2" pads_end="2,2" strides="1,1"/>
			<input>
				<port id="0">
					<dim>1</dim>
					<dim>512</dim>
					<dim>28</dim>
					<dim>28</dim>
				</port>
				<port id="1">
					<dim>512</dim>
					<dim>512</dim>
					<dim>3</dim>
					<dim>3</dim>
				</port>
			</input>
			<output>
				<port id="2" precision="FP32">
					<dim>1</dim>
					<dim>512</dim>
					<dim>28</dim>
					<dim>28</dim>
				</port>
			</output>
		</layer>
		<layer id="71" name="conv5_1/Dims1507/copy_const" type="Const" version="opset1">
			<data element_type="f32" offset="39981316" shape="1,512,1,1" size="2048"/>
			<output>
				<port id="1" precision="FP32">
					<dim>1</dim>
					<dim>512</dim>
					<dim>1</dim>
					<dim>1</dim>
				</port>
			</output>
		</layer>
		<layer id="72" name="conv5_1" type="Add" version="opset1">
			<input>
				<port id="0">
					<dim>1</dim>
					<dim>512</dim>
					<dim>28</dim>
					<dim>28</dim>
				</port>
				<port id="1">
					<dim>1</dim>
					<dim>512</dim>
					<dim>1</dim>
					<dim>1</dim>
				</port>
			</input>
			<output>
				<port id="2" precision="FP32">
					<dim>1</dim>
					<dim>512</dim>
					<dim>28</dim>
					<dim>28</dim>
				</port>
			</output>
		</layer>
		<layer id="73" name="relu5_1" type="ReLU" version="opset1">
			<input>
				<port id="0">
					<dim>1</dim>
					<dim>512</dim>
					<dim>28</dim>
					<dim>28</dim>
				</port>
			</input>
			<output>
				<port id="1" precision="FP32">
					<dim>1</dim>
					<dim>512</dim>
					<dim>28</dim>
					<dim>28</dim>
				</port>
			</output>
		</layer>
		<layer id="74" name="121/Output_0/Data__const" type="Const" version="opset1">
			<data element_type="f32" offset="39983364" shape="512,512,3,3" size="9437184"/>
			<output>
				<port id="1" precision="FP32">
					<dim>512</dim>
					<dim>512</dim>
					<dim>3</dim>
					<dim>3</dim>
				</port>
			</output>
		</layer>
		<layer id="75" name="conv5_2/WithoutBiases" type="Convolution" version="opset1">
			<data dilations="2,2" output_padding="0,0" pads_begin="2,2" pads_end="2,2" strides="1,1"/>
			<input>
				<port id="0">
					<dim>1</dim>
					<dim>512</dim>
					<dim>28</dim>
					<dim>28</dim>
				</port>
				<port id="1">
					<dim>512</dim>
					<dim>512</dim>
					<dim>3</dim>
					<dim>3</dim>
				</port>
			</input>
			<output>
				<port id="2" precision="FP32">
					<dim>1</dim>
					<dim>512</dim>
					<dim>28</dim>
					<dim>28</dim>
				</port>
			</output>
		</layer>
		<layer id="76" name="conv5_2/Dims1579/copy_const" type="Const" version="opset1">
			<data element_type="f32" offset="49420548" shape="1,512,1,1" size="2048"/>
			<output>
				<port id="1" precision="FP32">
					<dim>1</dim>
					<dim>512</dim>
					<dim>1</dim>
					<dim>1</dim>
				</port>
			</output>
		</layer>
		<layer id="77" name="conv5_2" type="Add" version="opset1">
			<input>
				<port id="0">
					<dim>1</dim>
					<dim>512</dim>
					<dim>28</dim>
					<dim>28</dim>
				</port>
				<port id="1">
					<dim>1</dim>
					<dim>512</dim>
					<dim>1</dim>
					<dim>1</dim>
				</port>
			</input>
			<output>
				<port id="2" precision="FP32">
					<dim>1</dim>
					<dim>512</dim>
					<dim>28</dim>
					<dim>28</dim>
				</port>
			</output>
		</layer>
		<layer id="78" name="relu5_2" type="ReLU" version="opset1">
			<input>
				<port id="0">
					<dim>1</dim>
					<dim>512</dim>
					<dim>28</dim>
					<dim>28</dim>
				</port>
			</input>
			<output>
				<port id="1" precision="FP32">
					<dim>1</dim>
					<dim>512</dim>
					<dim>28</dim>
					<dim>28</dim>
				</port>
			</output>
		</layer>
		<layer id="79" name="93/Output_0/Data__const" type="Const" version="opset1">
			<data element_type="f32" offset="49422596" shape="512,512,3,3" size="9437184"/>
			<output>
				<port id="1" precision="FP32">
					<dim>512</dim>
					<dim>512</dim>
					<dim>3</dim>
					<dim>3</dim>
				</port>
			</output>
		</layer>
		<layer id="80" name="conv5_3/WithoutBiases" type="Convolution" version="opset1">
			<data dilations="2,2" output_padding="0,0" pads_begin="2,2" pads_end="2,2" strides="1,1"/>
			<input>
				<port id="0">
					<dim>1</dim>
					<dim>512</dim>
					<dim>28</dim>
					<dim>28</dim>
				</port>
				<port id="1">
					<dim>512</dim>
					<dim>512</dim>
					<dim>3</dim>
					<dim>3</dim>
				</port>
			</input>
			<output>
				<port id="2" precision="FP32">
					<dim>1</dim>
					<dim>512</dim>
					<dim>28</dim>
					<dim>28</dim>
				</port>
			</output>
		</layer>
		<layer id="81" name="conv5_3/Dims1561/copy_const" type="Const" version="opset1">
			<data element_type="f32" offset="58859780" shape="1,512,1,1" size="2048"/>
			<output>
				<port id="1" precision="FP32">
					<dim>1</dim>
					<dim>512</dim>
					<dim>1</dim>
					<dim>1</dim>
				</port>
			</output>
		</layer>
		<layer id="82" name="conv5_3" type="Add" version="opset1">
			<input>
				<port id="0">
					<dim>1</dim>
					<dim>512</dim>
					<dim>28</dim>
					<dim>28</dim>
				</port>
				<port id="1">
					<dim>1</dim>
					<dim>512</dim>
					<dim>1</dim>
					<dim>1</dim>
				</port>
			</input>
			<output>
				<port id="2" precision="FP32">
					<dim>1</dim>
					<dim>512</dim>
					<dim>28</dim>
					<dim>28</dim>
				</port>
			</output>
		</layer>
		<layer id="83" name="relu5_3" type="ReLU" version="opset1">
			<input>
				<port id="0">
					<dim>1</dim>
					<dim>512</dim>
					<dim>28</dim>
					<dim>28</dim>
				</port>
			</input>
			<output>
				<port id="1" precision="FP32">
					<dim>1</dim>
					<dim>512</dim>
					<dim>28</dim>
					<dim>28</dim>
				</port>
			</output>
		</layer>
		<layer id="84" name="data_mul_24912495/copy_const" type="Const" version="opset1">
			<data element_type="f32" offset="58861828" shape="1,512,1,1" size="2048"/>
			<output>
				<port id="1" precision="FP32">
					<dim>1</dim>
					<dim>512</dim>
					<dim>1</dim>
					<dim>1</dim>
				</port>
			</output>
		</layer>
		<layer id="85" name="conv5_3norm/mean/Fused_Mul_" type="Multiply" version="opset1">
			<input>
				<port id="0">
					<dim>1</dim>
					<dim>512</dim>
					<dim>28</dim>
					<dim>28</dim>
				</port>
				<port id="1">
					<dim>1</dim>
					<dim>512</dim>
					<dim>1</dim>
					<dim>1</dim>
				</port>
			</input>
			<output>
				<port id="2" precision="FP32">
					<dim>1</dim>
					<dim>512</dim>
					<dim>28</dim>
					<dim>28</dim>
				</port>
			</output>
		</layer>
		<layer id="86" name="data_add_24922497/copy_const" type="Const" version="opset1">
			<data element_type="f32" offset="58863876" shape="1,512,1,1" size="2048"/>
			<output>
				<port id="1" precision="FP32">
					<dim>1</dim>
					<dim>512</dim>
					<dim>1</dim>
					<dim>1</dim>
				</port>
			</output>
		</layer>
		<layer id="87" name="conv5_3norm/variance/Fused_Add_" type="Add" version="opset1">
			<input>
				<port id="0">
					<dim>1</dim>
					<dim>512</dim>
					<dim>28</dim>
					<dim>28</dim>
				</port>
				<port id="1">
					<dim>1</dim>
					<dim>512</dim>
					<dim>1</dim>
					<dim>1</dim>
				</port>
			</input>
			<output>
				<port id="2" precision="FP32">
					<dim>1</dim>
					<dim>512</dim>
					<dim>28</dim>
					<dim>28</dim>
				</port>
			</output>
		</layer>
		<layer id="88" name="83/Output_0/Data__const" type="Const" version="opset1">
			<data element_type="f32" offset="58865924" shape="512,512,3,3" size="9437184"/>
			<output>
				<port id="1" precision="FP32">
					<dim>512</dim>
					<dim>512</dim>
					<dim>3</dim>
					<dim>3</dim>
				</port>
			</output>
		</layer>
		<layer id="89" name="conv6_1/WithoutBiases" type="Convolution" version="opset1">
			<data dilations="2,2" output_padding="0,0" pads_begin="2,2" pads_end="2,2" strides="1,1"/>
			<input>
				<port id="0">
					<dim>1</dim>
					<dim>512</dim>
					<dim>28</dim>
					<dim>28</dim>
				</port>
				<port id="1">
					<dim>512</dim>
					<dim>512</dim>
					<dim>3</dim>
					<dim>3</dim>
				</port>
			</input>
			<output>
				<port id="2" precision="FP32">
					<dim>1</dim>
					<dim>512</dim>
					<dim>28</dim>
					<dim>28</dim>
				</port>
			</output>
		</layer>
		<layer id="90" name="conv6_1/Dims1591/copy_const" type="Const" version="opset1">
			<data element_type="f32" offset="68303108" shape="1,512,1,1" size="2048"/>
			<output>
				<port id="1" precision="FP32">
					<dim>1</dim>
					<dim>512</dim>
					<dim>1</dim>
					<dim>1</dim>
				</port>
			</output>
		</layer>
		<layer id="91" name="conv6_1" type="Add" version="opset1">
			<input>
				<port id="0">
					<dim>1</dim>
					<dim>512</dim>
					<dim>28</dim>
					<dim>28</dim>
				</port>
				<port id="1">
					<dim>1</dim>
					<dim>512</dim>
					<dim>1</dim>
					<dim>1</dim>
				</port>
			</input>
			<output>
				<port id="2" precision="FP32">
					<dim>1</dim>
					<dim>512</dim>
					<dim>28</dim>
					<dim>28</dim>
				</port>
			</output>
		</layer>
		<layer id="92" name="relu6_1" type="ReLU" version="opset1">
			<input>
				<port id="0">
					<dim>1</dim>
					<dim>512</dim>
					<dim>28</dim>
					<dim>28</dim>
				</port>
			</input>
			<output>
				<port id="1" precision="FP32">
					<dim>1</dim>
					<dim>512</dim>
					<dim>28</dim>
					<dim>28</dim>
				</port>
			</output>
		</layer>
		<layer id="93" name="123/Output_0/Data__const" type="Const" version="opset1">
			<data element_type="f32" offset="68305156" shape="512,512,3,3" size="9437184"/>
			<output>
				<port id="1" precision="FP32">
					<dim>512</dim>
					<dim>512</dim>
					<dim>3</dim>
					<dim>3</dim>
				</port>
			</output>
		</layer>
		<layer id="94" name="conv6_2/WithoutBiases" type="Convolution" version="opset1">
			<data dilations="2,2" output_padding="0,0" pads_begin="2,2" pads_end="2,2" strides="1,1"/>
			<input>
				<port id="0">
					<dim>1</dim>
					<dim>512</dim>
					<dim>28</dim>
					<dim>28</dim>
				</port>
				<port id="1">
					<dim>512</dim>
					<dim>512</dim>
					<dim>3</dim>
					<dim>3</dim>
				</port>
			</input>
			<output>
				<port id="2" precision="FP32">
					<dim>1</dim>
					<dim>512</dim>
					<dim>28</dim>
					<dim>28</dim>
				</port>
			</output>
		</layer>
		<layer id="95" name="conv6_2/Dims1513/copy_const" type="Const" version="opset1">
			<data element_type="f32" offset="77742340" shape="1,512,1,1" size="2048"/>
			<output>
				<port id="1" precision="FP32">
					<dim>1</dim>
					<dim>512</dim>
					<dim>1</dim>
					<dim>1</dim>
				</port>
			</output>
		</layer>
		<layer id="96" name="conv6_2" type="Add" version="opset1">
			<input>
				<port id="0">
					<dim>1</dim>
					<dim>512</dim>
					<dim>28</dim>
					<dim>28</dim>
				</port>
				<port id="1">
					<dim>1</dim>
					<dim>512</dim>
					<dim>1</dim>
					<dim>1</dim>
				</port>
			</input>
			<output>
				<port id="2" precision="FP32">
					<dim>1</dim>
					<dim>512</dim>
					<dim>28</dim>
					<dim>28</dim>
				</port>
			</output>
		</layer>
		<layer id="97" name="relu6_2" type="ReLU" version="opset1">
			<input>
				<port id="0">
					<dim>1</dim>
					<dim>512</dim>
					<dim>28</dim>
					<dim>28</dim>
				</port>
			</input>
			<output>
				<port id="1" precision="FP32">
					<dim>1</dim>
					<dim>512</dim>
					<dim>28</dim>
					<dim>28</dim>
				</port>
			</output>
		</layer>
		<layer id="98" name="62/Output_0/Data__const" type="Const" version="opset1">
			<data element_type="f32" offset="77744388" shape="512,512,3,3" size="9437184"/>
			<output>
				<port id="1" precision="FP32">
					<dim>512</dim>
					<dim>512</dim>
					<dim>3</dim>
					<dim>3</dim>
				</port>
			</output>
		</layer>
		<layer id="99" name="conv6_3/WithoutBiases" type="Convolution" version="opset1">
			<data dilations="2,2" output_padding="0,0" pads_begin="2,2" pads_end="2,2" strides="1,1"/>
			<input>
				<port id="0">
					<dim>1</dim>
					<dim>512</dim>
					<dim>28</dim>
					<dim>28</dim>
				</port>
				<port id="1">
					<dim>512</dim>
					<dim>512</dim>
					<dim>3</dim>
					<dim>3</dim>
				</port>
			</input>
			<output>
				<port id="2" precision="FP32">
					<dim>1</dim>
					<dim>512</dim>
					<dim>28</dim>
					<dim>28</dim>
				</port>
			</output>
		</layer>
		<layer id="100" name="conv6_3/Dims1525/copy_const" type="Const" version="opset1">
			<data element_type="f32" offset="87181572" shape="1,512,1,1" size="2048"/>
			<output>
				<port id="1" precision="FP32">
					<dim>1</dim>
					<dim>512</dim>
					<dim>1</dim>
					<dim>1</dim>
				</port>
			</output>
		</layer>
		<layer id="101" name="conv6_3" type="Add" version="opset1">
			<input>
				<port id="0">
					<dim>1</dim>
					<dim>512</dim>
					<dim>28</dim>
					<dim>28</dim>
				</port>
				<port id="1">
					<dim>1</dim>
					<dim>512</dim>
					<dim>1</dim>
					<dim>1</dim>
				</port>
			</input>
			<output>
				<port id="2" precision="FP32">
					<dim>1</dim>
					<dim>512</dim>
					<dim>28</dim>
					<dim>28</dim>
				</port>
			</output>
		</layer>
		<layer id="102" name="relu6_3" type="ReLU" version="opset1">
			<input>
				<port id="0">
					<dim>1</dim>
					<dim>512</dim>
					<dim>28</dim>
					<dim>28</dim>
				</port>
			</input>
			<output>
				<port id="1" precision="FP32">
					<dim>1</dim>
					<dim>512</dim>
					<dim>28</dim>
					<dim>28</dim>
				</port>
			</output>
		</layer>
		<layer id="103" name="data_mul_24992503/copy_const" type="Const" version="opset1">
			<data element_type="f32" offset="87183620" shape="1,512,1,1" size="2048"/>
			<output>
				<port id="1" precision="FP32">
					<dim>1</dim>
					<dim>512</dim>
					<dim>1</dim>
					<dim>1</dim>
				</port>
			</output>
		</layer>
		<layer id="104" name="conv6_3norm/mean/Fused_Mul_" type="Multiply" version="opset1">
			<input>
				<port id="0">
					<dim>1</dim>
					<dim>512</dim>
					<dim>28</dim>
					<dim>28</dim>
				</port>
				<port id="1">
					<dim>1</dim>
					<dim>512</dim>
					<dim>1</dim>
					<dim>1</dim>
				</port>
			</input>
			<output>
				<port id="2" precision="FP32">
					<dim>1</dim>
					<dim>512</dim>
					<dim>28</dim>
					<dim>28</dim>
				</port>
			</output>
		</layer>
		<layer id="105" name="data_add_25002505/copy_const" type="Const" version="opset1">
			<data element_type="f32" offset="87185668" shape="1,512,1,1" size="2048"/>
			<output>
				<port id="1" precision="FP32">
					<dim>1</dim>
					<dim>512</dim>
					<dim>1</dim>
					<dim>1</dim>
				</port>
			</output>
		</layer>
		<layer id="106" name="conv6_3norm/variance/Fused_Add_" type="Add" version="opset1">
			<input>
				<port id="0">
					<dim>1</dim>
					<dim>512</dim>
					<dim>28</dim>
					<dim>28</dim>
				</port>
				<port id="1">
					<dim>1</dim>
					<dim>512</dim>
					<dim>1</dim>
					<dim>1</dim>
				</port>
			</input>
			<output>
				<port id="2" precision="FP32">
					<dim>1</dim>
					<dim>512</dim>
					<dim>28</dim>
					<dim>28</dim>
				</port>
			</output>
		</layer>
		<layer id="107" name="117/Output_0/Data__const" type="Const" version="opset1">
			<data element_type="f32" offset="87187716" shape="512,512,3,3" size="9437184"/>
			<output>
				<port id="1" precision="FP32">
					<dim>512</dim>
					<dim>512</dim>
					<dim>3</dim>
					<dim>3</dim>
				</port>
			</output>
		</layer>
		<layer id="108" name="conv7_1/WithoutBiases" type="Convolution" version="opset1">
			<data dilations="1,1" output_padding="0,0" pads_begin="1,1" pads_end="1,1" strides="1,1"/>
			<input>
				<port id="0">
					<dim>1</dim>
					<dim>512</dim>
					<dim>28</dim>
					<dim>28</dim>
				</port>
				<port id="1">
					<dim>512</dim>
					<dim>512</dim>
					<dim>3</dim>
					<dim>3</dim>
				</port>
			</input>
			<output>
				<port id="2" precision="FP32">
					<dim>1</dim>
					<dim>512</dim>
					<dim>28</dim>
					<dim>28</dim>
				</port>
			</output>
		</layer>
		<layer id="109" name="conv7_1/Dims1555/copy_const" type="Const" version="opset1">
			<data element_type="f32" offset="96624900" shape="1,512,1,1" size="2048"/>
			<output>
				<port id="1" precision="FP32">
					<dim>1</dim>
					<dim>512</dim>
					<dim>1</dim>
					<dim>1</dim>
				</port>
			</output>
		</layer>
		<layer id="110" name="conv7_1" type="Add" version="opset1">
			<input>
				<port id="0">
					<dim>1</dim>
					<dim>512</dim>
					<dim>28</dim>
					<dim>28</dim>
				</port>
				<port id="1">
					<dim>1</dim>
					<dim>512</dim>
					<dim>1</dim>
					<dim>1</dim>
				</port>
			</input>
			<output>
				<port id="2" precision="FP32">
					<dim>1</dim>
					<dim>512</dim>
					<dim>28</dim>
					<dim>28</dim>
				</port>
			</output>
		</layer>
		<layer id="111" name="relu7_1" type="ReLU" version="opset1">
			<input>
				<port id="0">
					<dim>1</dim>
					<dim>512</dim>
					<dim>28</dim>
					<dim>28</dim>
				</port>
			</input>
			<output>
				<port id="1" precision="FP32">
					<dim>1</dim>
					<dim>512</dim>
					<dim>28</dim>
					<dim>28</dim>
				</port>
			</output>
		</layer>
		<layer id="112" name="119/Output_0/Data__const" type="Const" version="opset1">
			<data element_type="f32" offset="96626948" shape="512,512,3,3" size="9437184"/>
			<output>
				<port id="1" precision="FP32">
					<dim>512</dim>
					<dim>512</dim>
					<dim>3</dim>
					<dim>3</dim>
				</port>
			</output>
		</layer>
		<layer id="113" name="conv7_2/WithoutBiases" type="Convolution" version="opset1">
			<data dilations="1,1" output_padding="0,0" pads_begin="1,1" pads_end="1,1" strides="1,1"/>
			<input>
				<port id="0">
					<dim>1</dim>
					<dim>512</dim>
					<dim>28</dim>
					<dim>28</dim>
				</port>
				<port id="1">
					<dim>512</dim>
					<dim>512</dim>
					<dim>3</dim>
					<dim>3</dim>
				</port>
			</input>
			<output>
				<port id="2" precision="FP32">
					<dim>1</dim>
					<dim>512</dim>
					<dim>28</dim>
					<dim>28</dim>
				</port>
			</output>
		</layer>
		<layer id="114" name="conv7_2/Dims1615/copy_const" type="Const" version="opset1">
			<data element_type="f32" offset="106064132" shape="1,512,1,1" size="2048"/>
			<output>
				<port id="1" precision="FP32">
					<dim>1</dim>
					<dim>512</dim>
					<dim>1</dim>
					<dim>1</dim>
				</port>
			</output>
		</layer>
		<layer id="115" name="conv7_2" type="Add" version="opset1">
			<input>
				<port id="0">
					<dim>1</dim>
					<dim>512</dim>
					<dim>28</dim>
					<dim>28</dim>
				</port>
				<port id="1">
					<dim>1</dim>
					<dim>512</dim>
					<dim>1</dim>
					<dim>1</dim>
				</port>
			</input>
			<output>
				<port id="2" precision="FP32">
					<dim>1</dim>
					<dim>512</dim>
					<dim>28</dim>
					<dim>28</dim>
				</port>
			</output>
		</layer>
		<layer id="116" name="relu7_2" type="ReLU" version="opset1">
			<input>
				<port id="0">
					<dim>1</dim>
					<dim>512</dim>
					<dim>28</dim>
					<dim>28</dim>
				</port>
			</input>
			<output>
				<port id="1" precision="FP32">
					<dim>1</dim>
					<dim>512</dim>
					<dim>28</dim>
					<dim>28</dim>
				</port>
			</output>
		</layer>
		<layer id="117" name="95/Output_0/Data__const" type="Const" version="opset1">
			<data element_type="f32" offset="106066180" shape="512,512,3,3" size="9437184"/>
			<output>
				<port id="1" precision="FP32">
					<dim>512</dim>
					<dim>512</dim>
					<dim>3</dim>
					<dim>3</dim>
				</port>
			</output>
		</layer>
		<layer id="118" name="conv7_3/WithoutBiases" type="Convolution" version="opset1">
			<data dilations="1,1" output_padding="0,0" pads_begin="1,1" pads_end="1,1" strides="1,1"/>
			<input>
				<port id="0">
					<dim>1</dim>
					<dim>512</dim>
					<dim>28</dim>
					<dim>28</dim>
				</port>
				<port id="1">
					<dim>512</dim>
					<dim>512</dim>
					<dim>3</dim>
					<dim>3</dim>
				</port>
			</input>
			<output>
				<port id="2" precision="FP32">
					<dim>1</dim>
					<dim>512</dim>
					<dim>28</dim>
					<dim>28</dim>
				</port>
			</output>
		</layer>
		<layer id="119" name="conv7_3/Dims1567/copy_const" type="Const" version="opset1">
			<data element_type="f32" offset="115503364" shape="1,512,1,1" size="2048"/>
			<output>
				<port id="1" precision="FP32">
					<dim>1</dim>
					<dim>512</dim>
					<dim>1</dim>
					<dim>1</dim>
				</port>
			</output>
		</layer>
		<layer id="120" name="conv7_3" type="Add" version="opset1">
			<input>
				<port id="0">
					<dim>1</dim>
					<dim>512</dim>
					<dim>28</dim>
					<dim>28</dim>
				</port>
				<port id="1">
					<dim>1</dim>
					<dim>512</dim>
					<dim>1</dim>
					<dim>1</dim>
				</port>
			</input>
			<output>
				<port id="2" precision="FP32">
					<dim>1</dim>
					<dim>512</dim>
					<dim>28</dim>
					<dim>28</dim>
				</port>
			</output>
		</layer>
		<layer id="121" name="relu7_3" type="ReLU" version="opset1">
			<input>
				<port id="0">
					<dim>1</dim>
					<dim>512</dim>
					<dim>28</dim>
					<dim>28</dim>
				</port>
			</input>
			<output>
				<port id="1" precision="FP32">
					<dim>1</dim>
					<dim>512</dim>
					<dim>28</dim>
					<dim>28</dim>
				</port>
			</output>
		</layer>
		<layer id="122" name="data_mul_25072511/copy_const" type="Const" version="opset1">
			<data element_type="f32" offset="115505412" shape="1,512,1,1" size="2048"/>
			<output>
				<port id="1" precision="FP32">
					<dim>1</dim>
					<dim>512</dim>
					<dim>1</dim>
					<dim>1</dim>
				</port>
			</output>
		</layer>
		<layer id="123" name="conv7_3norm/mean/Fused_Mul_" type="Multiply" version="opset1">
			<input>
				<port id="0">
					<dim>1</dim>
					<dim>512</dim>
					<dim>28</dim>
					<dim>28</dim>
				</port>
				<port id="1">
					<dim>1</dim>
					<dim>512</dim>
					<dim>1</dim>
					<dim>1</dim>
				</port>
			</input>
			<output>
				<port id="2" precision="FP32">
					<dim>1</dim>
					<dim>512</dim>
					<dim>28</dim>
					<dim>28</dim>
				</port>
			</output>
		</layer>
		<layer id="124" name="data_add_25082513/copy_const" type="Const" version="opset1">
			<data element_type="f32" offset="115507460" shape="1,512,1,1" size="2048"/>
			<output>
				<port id="1" precision="FP32">
					<dim>1</dim>
					<dim>512</dim>
					<dim>1</dim>
					<dim>1</dim>
				</port>
			</output>
		</layer>
		<layer id="125" name="conv7_3norm/variance/Fused_Add_" type="Add" version="opset1">
			<input>
				<port id="0">
					<dim>1</dim>
					<dim>512</dim>
					<dim>28</dim>
					<dim>28</dim>
				</port>
				<port id="1">
					<dim>1</dim>
					<dim>512</dim>
					<dim>1</dim>
					<dim>1</dim>
				</port>
			</input>
			<output>
				<port id="2" precision="FP32">
					<dim>1</dim>
					<dim>512</dim>
					<dim>28</dim>
					<dim>28</dim>
				</port>
			</output>
		</layer>
		<layer id="126" name="101/Output_0/Data__const" type="Const" version="opset1">
			<data element_type="f32" offset="115509508" shape="512,256,4,4" size="8388608"/>
			<output>
				<port id="1" precision="FP32">
					<dim>512</dim>
					<dim>256</dim>
					<dim>4</dim>
					<dim>4</dim>
				</port>
			</output>
		</layer>
		<layer id="127" name="conv8_1/WithoutBiases" type="ConvolutionBackpropData" version="opset1">
			<data dilations="1,1" output_padding="0,0" pads_begin="1,1" pads_end="1,1" strides="2,2"/>
			<input>
				<port id="0">
					<dim>1</dim>
					<dim>512</dim>
					<dim>28</dim>
					<dim>28</dim>
				</port>
				<port id="1">
					<dim>512</dim>
					<dim>256</dim>
					<dim>4</dim>
					<dim>4</dim>
				</port>
			</input>
			<output>
				<port id="2" precision="FP32">
					<dim>1</dim>
					<dim>256</dim>
					<dim>56</dim>
					<dim>56</dim>
				</port>
			</output>
		</layer>
		<layer id="128" name="conv8_1/Dims1537/copy_const" type="Const" version="opset1">
			<data element_type="f32" offset="123898116" shape="1,256,1,1" size="1024"/>
			<output>
				<port id="1" precision="FP32">
					<dim>1</dim>
					<dim>256</dim>
					<dim>1</dim>
					<dim>1</dim>
				</port>
			</output>
		</layer>
		<layer id="129" name="conv8_1" type="Add" version="opset1">
			<input>
				<port id="0">
					<dim>1</dim>
					<dim>256</dim>
					<dim>56</dim>
					<dim>56</dim>
				</port>
				<port id="1">
					<dim>1</dim>
					<dim>256</dim>
					<dim>1</dim>
					<dim>1</dim>
				</port>
			</input>
			<output>
				<port id="2" precision="FP32">
					<dim>1</dim>
					<dim>256</dim>
					<dim>56</dim>
					<dim>56</dim>
				</port>
			</output>
		</layer>
		<layer id="130" name="relu8_1" type="ReLU" version="opset1">
			<input>
				<port id="0">
					<dim>1</dim>
					<dim>256</dim>
					<dim>56</dim>
					<dim>56</dim>
				</port>
			</input>
			<output>
				<port id="1" precision="FP32">
					<dim>1</dim>
					<dim>256</dim>
					<dim>56</dim>
					<dim>56</dim>
				</port>
			</output>
		</layer>
		<layer id="131" name="113/Output_0/Data__const" type="Const" version="opset1">
			<data element_type="f32" offset="123899140" shape="256,256,3,3" size="2359296"/>
			<output>
				<port id="1" precision="FP32">
					<dim>256</dim>
					<dim>256</dim>
					<dim>3</dim>
					<dim>3</dim>
				</port>
			</output>
		</layer>
		<layer id="132" name="conv8_2/WithoutBiases" type="Convolution" version="opset1">
			<data dilations="1,1" output_padding="0,0" pads_begin="1,1" pads_end="1,1" strides="1,1"/>
			<input>
				<port id="0">
					<dim>1</dim>
					<dim>256</dim>
					<dim>56</dim>
					<dim>56</dim>
				</port>
				<port id="1">
					<dim>256</dim>
					<dim>256</dim>
					<dim>3</dim>
					<dim>3</dim>
				</port>
			</input>
			<output>
				<port id="2" precision="FP32">
					<dim>1</dim>
					<dim>256</dim>
					<dim>56</dim>
					<dim>56</dim>
				</port>
			</output>
		</layer>
		<layer id="133" name="conv8_2/Dims1609/copy_const" type="Const" version="opset1">
			<data element_type="f32" offset="126258436" shape="1,256,1,1" size="1024"/>
			<output>
				<port id="1" precision="FP32">
					<dim>1</dim>
					<dim>256</dim>
					<dim>1</dim>
					<dim>1</dim>
				</port>
			</output>
		</layer>
		<layer id="134" name="conv8_2" type="Add" version="opset1">
			<input>
				<port id="0">
					<dim>1</dim>
					<dim>256</dim>
					<dim>56</dim>
					<dim>56</dim>
				</port>
				<port id="1">
					<dim>1</dim>
					<dim>256</dim>
					<dim>1</dim>
					<dim>1</dim>
				</port>
			</input>
			<output>
				<port id="2" precision="FP32">
					<dim>1</dim>
					<dim>256</dim>
					<dim>56</dim>
					<dim>56</dim>
				</port>
			</output>
		</layer>
		<layer id="135" name="relu8_2" type="ReLU" version="opset1">
			<input>
				<port id="0">
					<dim>1</dim>
					<dim>256</dim>
					<dim>56</dim>
					<dim>56</dim>
				</port>
			</input>
			<output>
				<port id="1" precision="FP32">
					<dim>1</dim>
					<dim>256</dim>
					<dim>56</dim>
					<dim>56</dim>
				</port>
			</output>
		</layer>
		<layer id="136" name="67/Output_0/Data__const" type="Const" version="opset1">
			<data element_type="f32" offset="126259460" shape="256,256,3,3" size="2359296"/>
			<output>
				<port id="1" precision="FP32">
					<dim>256</dim>
					<dim>256</dim>
					<dim>3</dim>
					<dim>3</dim>
				</port>
			</output>
		</layer>
		<layer id="137" name="conv8_3/WithoutBiases" type="Convolution" version="opset1">
			<data dilations="1,1" output_padding="0,0" pads_begin="1,1" pads_end="1,1" strides="1,1"/>
			<input>
				<port id="0">
					<dim>1</dim>
					<dim>256</dim>
					<dim>56</dim>
					<dim>56</dim>
				</port>
				<port id="1">
					<dim>256</dim>
					<dim>256</dim>
					<dim>3</dim>
					<dim>3</dim>
				</port>
			</input>
			<output>
				<port id="2" precision="FP32">
					<dim>1</dim>
					<dim>256</dim>
					<dim>56</dim>
					<dim>56</dim>
				</port>
			</output>
		</layer>
		<layer id="138" name="conv8_3/Dims1495/copy_const" type="Const" version="opset1">
			<data element_type="f32" offset="128618756" shape="1,256,1,1" size="1024"/>
			<output>
				<port id="1" precision="FP32">
					<dim>1</dim>
					<dim>256</dim>
					<dim>1</dim>
					<dim>1</dim>
				</port>
			</output>
		</layer>
		<layer id="139" name="conv8_3" type="Add" version="opset1">
			<input>
				<port id="0">
					<dim>1</dim>
					<dim>256</dim>
					<dim>56</dim>
					<dim>56</dim>
				</port>
				<port id="1">
					<dim>1</dim>
					<dim>256</dim>
					<dim>1</dim>
					<dim>1</dim>
				</port>
			</input>
			<output>
				<port id="2" precision="FP32">
					<dim>1</dim>
					<dim>256</dim>
					<dim>56</dim>
					<dim>56</dim>
				</port>
			</output>
		</layer>
		<layer id="140" name="relu8_3" type="ReLU" version="opset1">
			<input>
				<port id="0">
					<dim>1</dim>
					<dim>256</dim>
					<dim>56</dim>
					<dim>56</dim>
				</port>
			</input>
			<output>
				<port id="1" precision="FP32">
					<dim>1</dim>
					<dim>256</dim>
					<dim>56</dim>
					<dim>56</dim>
				</port>
			</output>
		</layer>
		<layer id="141" name="65/Output_0/Data__const" type="Const" version="opset1">
			<data element_type="f32" offset="128619780" shape="313,256,1,1" size="320512"/>
			<output>
				<port id="1" precision="FP32">
					<dim>313</dim>
					<dim>256</dim>
					<dim>1</dim>
					<dim>1</dim>
				</port>
			</output>
		</layer>
		<layer id="142" name="conv8_313/WithoutBiases" type="Convolution" version="opset1">
			<data dilations="1,1" output_padding="0,0" pads_begin="0,0" pads_end="0,0" strides="1,1"/>
			<input>
				<port id="0">
					<dim>1</dim>
					<dim>256</dim>
					<dim>56</dim>
					<dim>56</dim>
				</port>
				<port id="1">
					<dim>313</dim>
					<dim>256</dim>
					<dim>1</dim>
					<dim>1</dim>
				</port>
			</input>
			<output>
				<port id="2" precision="FP32">
					<dim>1</dim>
					<dim>313</dim>
					<dim>56</dim>
					<dim>56</dim>
				</port>
			</output>
		</layer>
		<layer id="143" name="conv8_313/Dims1489/copy_const" type="Const" version="opset1">
			<data element_type="f32" offset="128940292" shape="1,313,1,1" size="1252"/>
			<output>
				<port id="1" precision="FP32">
					<dim>1</dim>
					<dim>313</dim>
					<dim>1</dim>
					<dim>1</dim>
				</port>
			</output>
		</layer>
		<layer id="144" name="conv8_313" type="Add" version="opset1">
			<input>
				<port id="0">
					<dim>1</dim>
					<dim>313</dim>
					<dim>56</dim>
					<dim>56</dim>
				</port>
				<port id="1">
					<dim>1</dim>
					<dim>313</dim>
					<dim>1</dim>
					<dim>1</dim>
				</port>
			</input>
			<output>
				<port id="2" precision="FP32">
					<dim>1</dim>
					<dim>313</dim>
					<dim>56</dim>
					<dim>56</dim>
				</port>
			</output>
		</layer>
		<layer id="145" name="class8_313_rh" type="SoftMax" version="opset1">
			<data axis="1"/>
			<input>
				<port id="0">
					<dim>1</dim>
					<dim>313</dim>
					<dim>56</dim>
					<dim>56</dim>
				</port>
			</input>
			<output>
				<port id="1" precision="FP32">
					<dim>1</dim>
					<dim>313</dim>
					<dim>56</dim>
					<dim>56</dim>
				</port>
			</output>
		</layer>
		<layer id="146" name="class8_313_rh/sink_port_0" type="Result" version="opset1">
			<input>
				<port id="0">
					<dim>1</dim>
					<dim>313</dim>
					<dim>56</dim>
					<dim>56</dim>
				</port>
			</input>
		</layer>
	</layers>
	<edges>
		<edge from-layer="0" from-port="0" to-layer="2" to-port="0"/>
		<edge from-layer="1" from-port="1" to-layer="2" to-port="1"/>
		<edge from-layer="2" from-port="2" to-layer="4" to-port="0"/>
		<edge from-layer="3" from-port="1" to-layer="4" to-port="1"/>
		<edge from-layer="4" from-port="2" to-layer="6" to-port="0"/>
		<edge from-layer="5" from-port="1" to-layer="6" to-port="1"/>
		<edge from-layer="6" from-port="2" to-layer="7" to-port="0"/>
		<edge from-layer="7" from-port="1" to-layer="9" to-port="0"/>
		<edge from-layer="8" from-port="1" to-layer="9" to-port="1"/>
		<edge from-layer="9" from-port="2" to-layer="11" to-port="0"/>
		<edge from-layer="10" from-port="1" to-layer="11" to-port="1"/>
		<edge from-layer="11" from-port="2" to-layer="12" to-port="0"/>
		<edge from-layer="12" from-port="1" to-layer="14" to-port="0"/>
		<edge from-layer="13" from-port="1" to-layer="14" to-port="1"/>
		<edge from-layer="14" from-port="2" to-layer="16" to-port="0"/>
		<edge from-layer="15" from-port="1" to-layer="16" to-port="1"/>
		<edge from-layer="16" from-port="2" to-layer="18" to-port="0"/>
		<edge from-layer="17" from-port="1" to-layer="18" to-port="1"/>
		<edge from-layer="18" from-port="2" to-layer="20" to-port="0"/>
		<edge from-layer="19" from-port="1" to-layer="20" to-port="1"/>
		<edge from-layer="20" from-port="2" to-layer="21" to-port="0"/>
		<edge from-layer="21" from-port="1" to-layer="23" to-port="0"/>
		<edge from-layer="22" from-port="1" to-layer="23" to-port="1"/>
		<edge from-layer="23" from-port="2" to-layer="25" to-port="0"/>
		<edge from-layer="24" from-port="1" to-layer="25" to-port="1"/>
		<edge from-layer="25" from-port="2" to-layer="26" to-port="0"/>
		<edge from-layer="26" from-port="1" to-layer="28" to-port="0"/>
		<edge from-layer="27" from-port="1" to-layer="28" to-port="1"/>
		<edge from-layer="28" from-port="2" to-layer="30" to-port="0"/>
		<edge from-layer="29" from-port="1" to-layer="30" to-port="1"/>
		<edge from-layer="30" from-port="2" to-layer="32" to-port="0"/>
		<edge from-layer="31" from-port="1" to-layer="32" to-port="1"/>
		<edge from-layer="32" from-port="2" to-layer="34" to-port="0"/>
		<edge from-layer="33" from-port="1" to-layer="34" to-port="1"/>
		<edge from-layer="34" from-port="2" to-layer="35" to-port="0"/>
		<edge from-layer="35" from-port="1" to-layer="37" to-port="0"/>
		<edge from-layer="36" from-port="1" to-layer="37" to-port="1"/>
		<edge from-layer="37" from-port="2" to-layer="39" to-port="0"/>
		<edge from-layer="38" from-port="1" to-layer="39" to-port="1"/>
		<edge from-layer="39" from-port="2" to-layer="40" to-port="0"/>
		<edge from-layer="40" from-port="1" to-layer="42" to-port="0"/>
		<edge from-layer="41" from-port="1" to-layer="42" to-port="1"/>
		<edge from-layer="42" from-port="2" to-layer="44" to-port="0"/>
		<edge from-layer="43" from-port="1" to-layer="44" to-port="1"/>
		<edge from-layer="44" from-port="2" to-layer="45" to-port="0"/>
		<edge from-layer="45" from-port="1" to-layer="47" to-port="0"/>
		<edge from-layer="46" from-port="1" to-layer="47" to-port="1"/>
		<edge from-layer="47" from-port="2" to-layer="49" to-port="0"/>
		<edge from-layer="48" from-port="1" to-layer="49" to-port="1"/>
		<edge from-layer="49" from-port="2" to-layer="51" to-port="0"/>
		<edge from-layer="50" from-port="1" to-layer="51" to-port="1"/>
		<edge from-layer="51" from-port="2" to-layer="53" to-port="0"/>
		<edge from-layer="52" from-port="1" to-layer="53" to-port="1"/>
		<edge from-layer="53" from-port="2" to-layer="54" to-port="0"/>
		<edge from-layer="54" from-port="1" to-layer="56" to-port="0"/>
		<edge from-layer="55" from-port="1" to-layer="56" to-port="1"/>
		<edge from-layer="56" from-port="2" to-layer="58" to-port="0"/>
		<edge from-layer="57" from-port="1" to-layer="58" to-port="1"/>
		<edge from-layer="58" from-port="2" to-layer="59" to-port="0"/>
		<edge from-layer="59" from-port="1" to-layer="61" to-port="0"/>
		<edge from-layer="60" from-port="1" to-layer="61" to-port="1"/>
		<edge from-layer="61" from-port="2" to-layer="63" to-port="0"/>
		<edge from-layer="62" from-port="1" to-layer="63" to-port="1"/>
		<edge from-layer="63" from-port="2" to-layer="64" to-port="0"/>
		<edge from-layer="64" from-port="1" to-layer="66" to-port="0"/>
		<edge from-layer="65" from-port="1" to-layer="66" to-port="1"/>
		<edge from-layer="66" from-port="2" to-layer="68" to-port="0"/>
		<edge from-layer="67" from-port="1" to-layer="68" to-port="1"/>
		<edge from-layer="68" from-port="2" to-layer="70" to-port="0"/>
		<edge from-layer="69" from-port="1" to-layer="70" to-port="1"/>
		<edge from-layer="70" from-port="2" to-layer="72" to-port="0"/>
		<edge from-layer="71" from-port="1" to-layer="72" to-port="1"/>
		<edge from-layer="72" from-port="2" to-layer="73" to-port="0"/>
		<edge from-layer="73" from-port="1" to-layer="75" to-port="0"/>
		<edge from-layer="74" from-port="1" to-layer="75" to-port="1"/>
		<edge from-layer="75" from-port="2" to-layer="77" to-port="0"/>
		<edge from-layer="76" from-port="1" to-layer="77" to-port="1"/>
		<edge from-layer="77" from-port="2" to-layer="78" to-port="0"/>
		<edge from-layer="78" from-port="1" to-layer="80" to-port="0"/>
		<edge from-layer="79" from-port="1" to-layer="80" to-port="1"/>
		<edge from-layer="80" from-port="2" to-layer="82" to-port="0"/>
		<edge from-layer="81" from-port="1" to-layer="82" to-port="1"/>
		<edge from-layer="82" from-port="2" to-layer="83" to-port="0"/>
		<edge from-layer="83" from-port="1" to-layer="85" to-port="0"/>
		<edge from-layer="84" from-port="1" to-layer="85" to-port="1"/>
		<edge from-layer="85" from-port="2" to-layer="87" to-port="0"/>
		<edge from-layer="86" from-port="1" to-layer="87" to-port="1"/>
		<edge from-layer="87" from-port="2" to-layer="89" to-port="0"/>
		<edge from-layer="88" from-port="1" to-layer="89" to-port="1"/>
		<edge from-layer="89" from-port="2" to-layer="91" to-port="0"/>
		<edge from-layer="90" from-port="1" to-layer="91" to-port="1"/>
		<edge from-layer="91" from-port="2" to-layer="92" to-port="0"/>
		<edge from-layer="92" from-port="1" to-layer="94" to-port="0"/>
		<edge from-layer="93" from-port="1" to-layer="94" to-port="1"/>
		<edge from-layer="94" from-port="2" to-layer="96" to-port="0"/>
		<edge from-layer="95" from-port="1" to-layer="96" to-port="1"/>
		<edge from-layer="96" from-port="2" to-layer="97" to-port="0"/>
		<edge from-layer="97" from-port="1" to-layer="99" to-port="0"/>
		<edge from-layer="98" from-port="1" to-layer="99" to-port="1"/>
		<edge from-layer="99" from-port="2" to-layer="101" to-port="0"/>
		<edge from-layer="100" from-port="1" to-layer="101" to-port="1"/>
		<edge from-layer="101" from-port="2" to-layer="102" to-port="0"/>
		<edge from-layer="102" from-port="1" to-layer="104" to-port="0"/>
		<edge from-layer="103" from-port="1" to-layer="104" to-port="1"/>
		<edge from-layer="104" from-port="2" to-layer="106" to-port="0"/>
		<edge from-layer="105" from-port="1" to-layer="106" to-port="1"/>
		<edge from-layer="106" from-port="2" to-layer="108" to-port="0"/>
		<edge from-layer="107" from-port="1" to-layer="108" to-port="1"/>
		<edge from-layer="108" from-port="2" to-layer="110" to-port="0"/>
		<edge from-layer="109" from-port="1" to-layer="110" to-port="1"/>
		<edge from-layer="110" from-port="2" to-layer="111" to-port="0"/>
		<edge from-layer="111" from-port="1" to-layer="113" to-port="0"/>
		<edge from-layer="112" from-port="1" to-layer="113" to-port="1"/>
		<edge from-layer="113" from-port="2" to-layer="115" to-port="0"/>
		<edge from-layer="114" from-port="1" to-layer="115" to-port="1"/>
		<edge from-layer="115" from-port="2" to-layer="116" to-port="0"/>
		<edge from-layer="116" from-port="1" to-layer="118" to-port="0"/>
		<edge from-layer="117" from-port="1" to-layer="118" to-port="1"/>
		<edge from-layer="118" from-port="2" to-layer="120" to-port="0"/>
		<edge from-layer="119" from-port="1" to-layer="120" to-port="1"/>
		<edge from-layer="120" from-port="2" to-layer="121" to-port="0"/>
		<edge from-layer="121" from-port="1" to-layer="123" to-port="0"/>
		<edge from-layer="122" from-port="1" to-layer="123" to-port="1"/>
		<edge from-layer="123" from-port="2" to-layer="125" to-port="0"/>
		<edge from-layer="124" from-port="1" to-layer="125" to-port="1"/>
		<edge from-layer="125" from-port="2" to-layer="127" to-port="0"/>
		<edge from-layer="126" from-port="1" to-layer="127" to-port="1"/>
		<edge from-layer="127" from-port="2" to-layer="129" to-port="0"/>
		<edge from-layer="128" from-port="1" to-layer="129" to-port="1"/>
		<edge from-layer="129" from-port="2" to-layer="130" to-port="0"/>
		<edge from-layer="130" from-port="1" to-layer="132" to-port="0"/>
		<edge from-layer="131" from-port="1" to-layer="132" to-port="1"/>
		<edge from-layer="132" from-port="2" to-layer="134" to-port="0"/>
		<edge from-layer="133" from-port="1" to-layer="134" to-port="1"/>
		<edge from-layer="134" from-port="2" to-layer="135" to-port="0"/>
		<edge from-layer="135" from-port="1" to-layer="137" to-port="0"/>
		<edge from-layer="136" from-port="1" to-layer="137" to-port="1"/>
		<edge from-layer="137" from-port="2" to-layer="139" to-port="0"/>
		<edge from-layer="138" from-port="1" to-layer="139" to-port="1"/>
		<edge from-layer="139" from-port="2" to-layer="140" to-port="0"/>
		<edge from-layer="140" from-port="1" to-layer="142" to-port="0"/>
		<edge from-layer="141" from-port="1" to-layer="142" to-port="1"/>
		<edge from-layer="142" from-port="2" to-layer="144" to-port="0"/>
		<edge from-layer="143" from-port="1" to-layer="144" to-port="1"/>
		<edge from-layer="144" from-port="2" to-layer="145" to-port="0"/>
		<edge from-layer="145" from-port="1" to-layer="146" to-port="0"/>
	</edges>
	<meta_data>
		<MO_version value="2020.2.0-60-g0bc66e26ff"/>
		<cli_parameters>
			<blobs_as_inputs value="True"/>
			<caffe_parser_path value="DIR"/>
			<data_type value="float"/>
			<disable_nhwc_to_nchw value="False"/>
			<disable_omitting_optional value="False"/>
			<disable_resnet_optimization value="False"/>
			<disable_weights_compression value="False"/>
			<enable_concat_optimization value="False"/>
			<enable_flattening_nested_params value="False"/>
			<enable_ssd_gluoncv value="False"/>
			<extensions value="DIR"/>
			<framework value="caffe"/>
			<freeze_placeholder_with_value value="{}"/>
			<generate_deprecated_IR_V2 value="False"/>
			<generate_deprecated_IR_V7 value="False"/>
			<generate_experimental_IR_V10 value="True"/>
			<input value="data_l"/>
			<input_model value="DIR\colorization-v2-norebal.caffemodel"/>
			<input_model_is_text value="False"/>
			<input_proto value="DIR\colorization-v2-norebal.prototxt"/>
			<input_shape value="[1,1,224,224]"/>
			<k value="DIR\CustomLayersMapping.xml"/>
			<keep_quantize_ops_in_IR value="True"/>
			<keep_shape_ops value="False"/>
			<legacy_mxnet_model value="False"/>
			<log_level value="ERROR"/>
			<mean_scale_values value="{'data_l': {'mean': array([50.]), 'scale': None}}"/>
			<mean_values value="data_l[50]"/>
			<model_name value="colorization-v2-norebal"/>
			<move_to_preprocess value="False"/>
			<output value="['class8_313_rh']"/>
			<output_dir value="DIR"/>
			<placeholder_data_types value="{}"/>
			<placeholder_shapes value="{'data_l': array([  1,   1, 224, 224], dtype=int64)}"/>
			<progress value="False"/>
			<remove_memory value="False"/>
			<remove_output_softmax value="False"/>
			<reverse_input_channels value="False"/>
			<save_params_from_nd value="False"/>
			<scale_values value="()"/>
			<silent value="False"/>
			<stream_output value="False"/>
			<unset unset_cli_parameters="batch, counts, disable_fusing, disable_gfusing, finegrain_fusing, input_checkpoint, input_meta_graph, input_symbol, mean_file, mean_file_offsets, nd_prefix_name, pretrained_model_name, saved_model_dir, saved_model_tags, scale, tensorboard_logdir, tensorflow_custom_layer_libraries, tensorflow_custom_operations_config_update, tensorflow_object_detection_api_pipeline_config, tensorflow_use_custom_operations_config, transformations_config"/>
		</cli_parameters>
	</meta_data>
</net>
